Accident/torch_template/model_weights.pth (torch, 7378 bytes, 10 tensors)

net.0.weight f4 [13]
000000 45 0c 34 3f ac 53 50 3f 82 d8 6d 3f 18 e5 86 3f
       0.7033122 0.81377673 0.9290849 1.0538664
000010 5a a8 3e 3f c1 65 2d 3f 57 e7 3b 3f 4c 19 44 3f
       0.74475634 0.6773339 0.7339987 0.766011
000020 b9 84 8c 3f 7f 89 45 3f 6e 27 42 3f f1 2b 89 3f
       1.0978004 0.7716293 0.75841415 1.0716535
000030 10 dd 7a 3f
       0.97993565

net.0.bias f4 [13]
000000 d4 1d 85 3c f7 3a ae bb e0 14 7a bd 54 f4 60 bb
       0.016249575 -0.0053170878 -0.061055064 -0.0034325318
000010 16 e3 5e 3d 46 c8 f6 bd 92 03 05 3d 05 06 da bc
       0.054415785 -0.12049918 0.032474108 -0.026614198
000020 51 b2 3c 3d c9 eb 16 3c f2 6c 8f bc 36 a0 1c 3c
       0.046068493 0.009211489 -0.017508004 0.009559682
000030 60 62 89 bc
       -0.016770542

net.0.running_mean f4 [13]
000000 65 b1 37 bc 9d 13 1a 3c ff dd 71 3b 63 eb bd 3b
       -0.011211728 0.00940409 0.0036906002 0.0057958825
000010 d1 a6 f2 3b 3c 34 cf 3b b7 09 21 bb 2b 5c 64 3b
       0.00740514 0.0063233655 -0.002457244 0.0034844975
000020 4b ea 11 3c 0f 4d 14 3c 40 aa a4 3a 59 2d a5 3b
       0.008905957 0.009051575 0.0012562945 0.0050408063
000030 62 ea d2 3b
       0.006436632

net.0.running_var f4 [13]
000000 2d 5d 7f 3f b6 58 84 3f a3 92 81 3f 3b 0a 7c 3f
       0.9975155 1.0339572 1.0122875 0.9845311
000010 84 30 80 3f 35 7e 7e 3f ad 7a 81 3f 3a 79 80 3f
       1.0014806 0.99411327 1.0115563 1.0036995
000020 67 07 80 3f 3a 5b 7f 3f d7 6e 80 3f 4d 18 80 3f
       1.0002259 0.99748576 1.0033826 1.0007416
000030 22 59 82 3f
       1.0183451

net.2.weight f4 [16, 13]
000000 82 79 88 3d 24 eb aa 3d 9d 4e bb 3c 03 da 89 3e
       0.06663801 0.08345631 0.022864634 0.26924142
000010 de fd 78 bd 31 2c c8 3d e4 1b ab bd 12 23 84 3d
       -0.06078898 0.09774054 -0.08354929 0.06452002
000020 a3 96 b1 3e 57 65 db bd 25 ca 11 3e 25 13 59 bb
       0.3468524 -0.107126884 0.14237268 -0.0033122983
000030 8d fe 1c 3e db 64 52 3d 22 3a 11 3e 03 da cb 3a
       0.15331478 0.051365715 0.14182332 0.0015552643
000040 fe 20 2c 3e bd 67 a3 bb c6 33 58 bd 06 f3 81 3d
       0.1680946 -0.004986732 -0.05278375 0.06345181
000050 97 34 8c bd c1 47 8c bd 1a 76 89 bc 0a 06 9c 3d
       -0.06845968 -0.068496235 -0.016779948 0.07618339
000060 85 93 73 be d4 7a 98 bd 72 d3 b9 bd 00 11 07 be
       -0.23786743 -0.074453026 -0.09073533 -0.13190079
000070 d1 56 61 3c e5 4d 70 be e4 99 06 3e 8e 3a e1 bd
       0.013753609 -0.23467214 0.13144642 -0.109974965
000080 a0 07 03 3e a6 fd 04 3d 0d dd eb bd 95 8b f6 3d
       0.12795877 0.03246846 -0.115167715 0.12038342
000090 3d fc 21 bd e8 f5 9d 3e 99 53 c5 3d a8 72 94 bd
       -0.039547194 0.30851674 0.096350856 -0.072484314
0000a0 89 d1 cf 3d 20 b9 d2 bd 90 13 1a 3e 0a a5 3d 3e
       0.101473875 -0.10289216 0.15046525 0.18519989
0000b0 68 d6 88 3d 37 a5 21 bd 25 48 2a 3e 83 83 15 3c
       0.0668152 -0.0394642 0.16629083 0.009125593
0000c0 38 d9 2d 3b 1b b4 92 bd ac 0a 6a be 7d 07 d0 bd
       0.0026527178 -0.07163259 -0.22855633 -0.10157678
0000d0 a4 ec a9 bd ba d1 8a 3e 13 9b 5c bd 98 d1 68 3e
       -0.08297089 0.27113134 -0.053858828 0.22736204
0000e0 cf 2e 84 3d 61 76 20 bd 90 6f 1b 3e 26 41 91 bc
       0.064542405 -0.039175395 0.15179276 -0.01773126
0000f0 4f 3f 93 bc 07 35 fe bd 12 bf ec 3d 46 4d 03 be
       -0.017974524 -0.12412458 0.11559881 -0.12822446
000100 78 7d 3a 3d 09 c2 9a bd c1 21 30 3e 24 be b4 bd
       0.045529813 -0.075565405 0.17200376 -0.08825329
000110 db c6 1c be 35 54 3c be f1 6d 2d 3e 3b b9 9b 3c
       -0.15310232 -0.18391497 0.1693647 0.019009223
000120 63 8d 52 3e e7 27 53 be c0 ef 57 be c5 3d 4b be
       0.20561747 -0.2062069 -0.21087551 -0.19847782
000130 2b 9a 8e be be 1f 9a 3d 5a f9 f1 3c 02 e5 e9 3d
       -0.27851996 0.075255856 0.029537845 0.11420633
000140 54 4e b2 bd e4 26 ce bd 5c ed 9e 3d b7 ed 3c bd
       -0.08706346 -0.100660115 0.077601165 -0.04612514
000150 bc 88 29 3e 21 d0 f0 bd fc e5 5e 3e 86 d8 d6 bd
       0.16556066 -0.117584474 0.2176742 -0.10490517
000160 23 c7 ac bd 1d 41 18 3d 2c 8b 99 bc 9b 2f 42 bc
       -0.0843642 0.037171472 -0.01874312 -0.01185217
000170 2c 72 0e 3e d1 9c 04 3e 5a c5 36 be 2e 4e 5c bd
       0.1391074 0.12950446 -0.17848721 -0.053785495
000180 39 d7 2a 3e ca bd 1c bc 8b ac cc bd 4c 2c 19 be
       0.16683663 -0.009566734 -0.099938475 -0.14958304
000190 3c 6a b3 bd f2 e5 01 3d de d0 96 bd c2 f9 71 be
       -0.08760497 0.031713434 -0.07364057 -0.23630431
0001a0 df d4 97 3c a8 bf 09 be 99 71 52 be d5 78 8d be
       0.018534122 -0.13452017 -0.20551147 -0.2763125
0001b0 a4 23 fc bd eb 62 2a be c1 4e 43 3e ca 97 da bb
       -0.123114854 -0.16639297 0.19073011 -0.0066709267
0001c0 c9 11 50 3e b5 15 4e be 87 99 08 be 98 9e d8 bd
       0.20319284 -0.20125468 -0.13339816 -0.10577124
0001d0 99 af 06 3d 8e d6 0a be 6d 26 d3 bd 4d 0a 1d be
       0.032882307 -0.13558409 -0.103100635 -0.1533596
0001e0 6f 6e 08 3d 47 38 8a bd 22 0f 51 bd f1 f9 d9 bd
       0.033308443 -0.06749015 -0.051039822 -0.10643376
0001f0 d3 f2 ee bd 18 8f 15 be e3 fa d2 bc 90 96 3e be
       -0.11667409 -0.14605367 -0.025754398 -0.18612123
000200 44 43 93 3e 26 66 8d bd cc 88 15 3e a1 3a 1e 3d
       0.28762257 -0.06904249 0.14602965 0.03863013
000210 ca 1e 8b be 67 d9 14 3e 92 1d 0c be 1a b0 5a bd
       -0.27171928 0.14536057 -0.13683155 -0.0533906
000220 bd c1 0c be 26 7b 8e be 28 15 01 3d e1 67 18 3c
       -0.1374578 -0.2782833 0.031514317 0.00930211
000230 d6 c1 03 3d 35 8f 3e be 0b 7d 84 3e 49 63 97 bd
       0.03216728 -0.18609317 0.2587665 -0.07391984
000240 11 42 07 bd 8a 93 01 3e 2c d1 13 3e cf 9a 52 3e
       -0.03302199 0.12653938 0.14435261 0.20566867
000250 eb 1f 1b 3e c1 d9 37 be 0a bb d7 3d ba 8b 26 be
       0.15148894 -0.1795416 0.10533722 -0.16264239
000260 82 68 8a 3c 35 dc 17 be 37 46 78 3e 5f 7a 57 be
       0.016895536 -0.14830096 0.24245535 -0.21042775
000270 48 77 37 3d 24 33 02 3c 95 8a 15 bd be b2 6f be
       0.04479149 0.007946763 -0.036509115 -0.23408028
000280 e6 b3 0d 3e 13 c0 cf 3b d2 aa b6 3b 62 4e 06 be
       0.13838157 0.0063400357 0.0055745626 -0.13115838
000290 22 e0 5e 3e 71 0d 61 bd ed bb 38 bd 4b 13 94 3e
       0.21765187 -0.05494446 -0.045101095 0.2892097
0002a0 87 9d ac 3d 2b 9a 31 bd d8 9c 19 be 12 c7 79 bd
       0.084284835 -0.043359917 -0.15001237 -0.060980864
0002b0 b5 69 31 3e aa f7 a4 bd 54 64 bb bd 23 3c 2e bd
       0.1732548 -0.08055051 -0.091499954 -0.04253782
0002c0 5c e0 d9 bd 58 37 a6 3c 17 7b 07 3e 48 92 5d be
       -0.10638496 0.020290062 0.13230549 -0.21637833
0002d0 05 a0 04 3d 80 26 b2 3d 13 f5 a4 3d c9 30 88 bd
       0.03237917 0.086987495 0.08054557 -0.0664993
0002e0 c9 9d 16 3e 2b dd d1 3d 01 91 33 3d c5 f3 18 bd
       0.14708628 0.102472626 0.04383946 -0.03734185
0002f0 2c 50 89 b7 8e af 78 bb dd 02 23 be 4c 37 d9 bc
       -1.6369006e-05 -0.0037946436 -0.15919061 -0.026515625
000300 67 3a ac 3c 21 29 62 3e 09 8d 37 bd 27 1d d6 bd
       0.021023942 0.22086002 -0.044812236 -0.10454779
000310 d2 39 38 bd f2 8f 5a 3c e9 ec cf 3d 60 81 62 3c
       -0.044977017 0.013339983 0.10152609 0.013824791
000320 18 02 c3 bd 08 cd 2b be 7a 50 2b 3e 27 87 57 3e
       -0.09521884 -0.16777432 0.16729918 0.2104765
000330 dd d1 d3 3d d1 47 2c be ee 75 69 be 17 bb 82 be
       0.103427626 -0.16824271 -0.22798893 -0.25533363

net.2.bias f4 [16]
000000 2e 0f cf bd e5 72 03 3e 2f 7d 84 3e 90 f4 86 3d
       -0.10110317 0.12836798 0.25876758 0.06589615
000010 95 72 6d be b6 31 41 be 92 f4 0d bc d9 1d 77 3e
       -0.23188241 -0.1886662 -0.008664267 0.2413248
000020 9b fc ae ba 85 6b 84 bd 58 d1 4c 3e 7d c0 db bd
       -0.0013350429 -0.0646582 0.20001733 -0.107300736
000030 e0 20 20 be ef 86 c3 3d 41 cc 30 be 65 67 fc 3c
       -0.15637541 0.09547221 -0.17265417 0.030811021

net.4.weight f4 [32, 16]
000000 de 93 26 bd 4f c2 66 3d a9 50 79 3e 8e 63 2f 3d
       -0.04066836 0.05633765 0.24347176 0.042819552
000010 f0 2b 84 be 8a 18 57 be 64 d1 cc bd 65 7d 00 3e
       -0.25814772 -0.21005455 -0.100008756 0.12547834
000020 2f 8f 06 3e d2 b3 69 3e 51 fe 0f 3d 48 f1 7f 3d
       0.13140558 0.22822502 0.035154644 0.062485963
000030 3c c2 3b 3d 29 64 3e be f5 a8 90 be ce b2 34 be
       0.045839533 -0.18592896 -0.28253904 -0.17646334
000040 c1 82 df 3d cb 91 1e be 59 c4 8c bd 60 34 26 be
       0.10913611 -0.15485303 -0.06873388 -0.16230917
000050 cd 78 20 bd 76 fc 4a be 38 5c 1b be b1 8c 9c 3d
       -0.039177705 -0.19822869 -0.15171897 0.07644022
000060 c1 e5 a0 bc dd 39 20 3e 92 f6 ac bd 96 62 4c be
       -0.019640805 0.15647073 -0.08445467 -0.19959483
000070 18 37 96 bc cb 98 d6 bd d8 fc b7 bd 71 72 80 be
       -0.018336818 -0.10478362 -0.08983773 -0.25087312
000080 dd 13 ea 3d 7b 87 18 be 06 8c eb 3d df 07 31 3e
       0.1142957 -0.14895432 0.11501317 0.17288159
000090 20 5c 34 3e bc 53 29 be b8 58 f2 3d da 2f ae bd
       0.17613268 -0.16535848 0.11833328 -0.08505221
0000a0 fb 5f c7 3d 18 86 48 3e 99 c7 aa bd b4 47 46 bd
       0.09735104 0.19582403 -0.083388515 -0.048408225
0000b0 1a dd 82 bd e9 e6 43 be 8a cc bf 3d 4a 6c 80 be
       -0.06389828 -0.19131054 0.093651846 -0.25082618
0000c0 61 93 0c 3e 02 97 64 3e 1f 84 6f 3e b2 f7 4a 3b
       0.13728096 0.2232323 0.23390244 0.0030970392
0000d0 7a c8 3c be a2 0a c7 3d 2f bb af 3d f7 8d 24 be
       -0.1843585 0.09718825 0.08580624 -0.1606978
0000e0 63 10 e5 bc b3 5f 6d bd ea db 4f bc 44 27 9d bd
       -0.027961915 -0.057952594 -0.012686709 -0.07673505
0000f0 19 4a af bd 17 14 26 3c 73 d0 58 be 33 3e 41 3e
       -0.08559055 0.010136626 -0.21173267 0.18871383
000100 37 81 5d 3e da 6d 51 bd 50 55 33 3c 52 c5 19 be
       0.21631323 -0.051130153 0.010945633 -0.15016678
000110 81 58 82 be 02 a3 81 be c4 15 88 3d ae 6c 18 be
       -0.25458148 -0.25319678 0.066447765 -0.14885208
000120 c1 f6 76 be f2 16 0a 3d 5e e1 43 bd 7c bb 38 bd
       -0.24117567 0.03371329 -0.04782235 -0.045100674
000130 8b e2 6e 3b ce 61 80 bd bf 0b c8 bc 94 48 02 be
       0.0036450948 -0.06268655 -0.024419663 -0.12722999
000140 9b 4d 1d be 34 c2 39 3e 41 b9 f1 bd a0 11 18 3d
       -0.15361635 0.18140489 -0.118029125 0.037126184
000150 69 5d 85 bd 31 af 80 3c 94 11 88 3e d0 3b 67 3d
       -0.06511957 0.015708538 0.2657591 0.056453526
000160 1a ad 52 be f8 7b cd 3d d8 d1 78 3e 1c 03 5e 3d
       -0.20573846 0.10033411 0.24298799 0.054202184
000170 26 5d 15 3e 82 32 3b 3e 57 9a b7 bd 93 af 84 3d
       0.14586315 0.18280986 -0.08964985 0.064788006
000180 f3 70 b0 be 63 7f f5 3c 9c 97 7a 3e 19 28 55 3e
       -0.34461173 0.02996797 0.24471897 0.20816077
000190 17 10 38 bd ac 73 9f 3c 64 6b 36 be b7 64 b3 bd
       -0.04493722 0.019464336 -0.17814404 -0.08759444
0001a0 a0 1a 58 bd 6a 99 98 3c 89 f2 4f 3e 21 5f 95 3d
       -0.052759767 0.018627841 0.20307364 0.07293535
0001b0 02 9c ef bd d2 fb 0b be 1e 66 12 3e 35 f8 5b be
       -0.11699678 -0.1367028 0.14296767 -0.21481402
0001c0 3c fe 30 bd 35 77 33 3e ae 7d 2a bd b6 cf 67 3d
       -0.043211207 0.17525943 -0.041623764 0.056594573
0001d0 22 53 33 3d 5e 2f 66 3d bf a6 b2 bd af cf ea bd
       0.043780454 0.056197517 -0.087232105 -0.11465394
0001e0 98 a3 c4 bd fd 46 84 bd a7 32 7d 3e a4 bd 97 bd
       -0.096015155 -0.064588524 0.24726354 -0.07409218
0001f0 a5 b2 f4 bc a7 be 1c 3e 27 d1 b8 3d 85 45 07 3e
       -0.02987034 0.15307103 0.09024268 0.13210113
000200 04 f1 14 3e 8f 0f 03 3e 6a 8d 5a be 32 cb 89 3d
       0.14545065 0.12798904 -0.21343008 0.067282096
000210 da 36 1f 3e 9a eb e3 bd 59 33 38 be 4a f0 81 3e
       0.15548268 -0.11128922 -0.17988338 0.25378639
000220 eb 62 28 be c8 9e 07 be 94 4e 90 be d9 64 b8 3c
       -0.16443984 -0.13244164 -0.2818495 0.022509025
000230 c5 05 06 3e 03 f3 1a 3e 35 9d 08 3d d5 d6 37 be
       0.13088138 0.15131764 0.03335305 -0.17953046
000240 73 1f 29 be b0 6e 4a 3c 6d d2 94 3e c1 90 22 3e
       -0.16515903 0.0123554915 0.29066792 0.15875532
000250 6a 8e 15 be ec 5b 63 bd bc 21 99 bd 27 1b ad bd
       -0.14605108 -0.055507585 -0.074771374 -0.084524445
000260 27 74 8d 3d c4 e5 0b 3e 8a 0f 6a 3e 67 c0 21 be
       0.0690692 0.13661867 0.2285749 -0.15796052
000270 8c e2 47 3e 2b 24 1c be 44 3b 85 3d e4 d5 80 3e
       0.19520015 -0.15248172 0.06505445 0.25163186
000280 9d 10 82 3c 38 48 60 3e 5c 73 4f be 15 db 6a bd
       0.015877062 0.2190255 -0.2025885 -0.05733784
000290 00 a7 e9 3d 49 5e 82 bc 15 18 8a bd 59 af bf bd
       0.11408806 -0.0159141 -0.067428745 -0.09359617
0002a0 9f c0 32 3e c7 18 b4 3d 35 56 f9 3b e5 0b 0b be
       0.17456292 0.087937884 0.0076091536 -0.13578756
0002b0 c0 29 82 be 7d 08 12 bc 0c 31 14 3d cc cc 08 be
       -0.25422478 -0.008913157 0.036179587 -0.13359374
0002c0 4b 74 52 3d cb d1 8f 3e dc 84 2e 3d 43 e3 8f 3b
       0.051380437 0.28089747 0.042607173 0.0043911054
0002d0 9f e1 69 bd 52 ac 57 be e6 e0 56 be 46 54 1b be
       -0.057099935 -0.21061829 -0.2098423 -0.15168867
0002e0 d1 bd 09 be 1c ab 68 3d c7 ec 25 bd be 1d 0f be
       -0.13451315 0.056803808 -0.04050901 -0.1397619
0002f0 1c 9c 1d 3e c5 17 9c 3d ec 9b 48 3e 16 1a 07 bc
       0.15391582 0.07621721 0.1959073 -0.0082459655
000300 7c fe e8 bd c8 e1 13 3e 24 aa 94 bd 70 a7 d2 bc
       -0.11376664 0.14441597 -0.07259014 -0.025714606
000310 e5 01 10 3d e5 fb ec bc 3a 3d 31 be b5 a8 46 3e
       0.035158057 -0.028928706 -0.17308512 0.19400294
000320 aa 09 7f 3e f8 88 e4 3d ab 58 09 bd fe cd 05 be
       0.2490603 0.11158937 -0.033531826 -0.13066861
000330 1d 75 75 3a 85 a2 15 3e 0a 28 13 3e 71 27 9d 3c
       0.00093634595 0.14612778 0.14370742 0.019183846
000340 cb fe b5 bd 3c 83 17 3e 59 f1 5e be 8d 43 2d 3e
       -0.088864885 0.14796156 -0.21771754 0.169203
000350 b4 d1 f4 bd fa fe f6 bb 02 c4 b2 bd 88 af fb 3c
       -0.1195406 -0.00753772 -0.08728792 0.030723348
000360 86 5c 94 bd 3f dd 24 3e 34 4e 86 bc 3b f2 1f 3e
       -0.0724421 0.16100024 -0.016394712 0.15619747
000370 e3 26 84 3e 0b ee 8a bd 6b a7 12 be 52 22 25 3e
       0.25810918 -0.06783684 -0.14321677 0.16126373
000380 ed 97 09 3e 49 cd 9e bd 31 0b 75 3c d4 d0 02 be
       0.13436861 -0.07753999 0.0149562815 -0.12774974
000390 48 98 38 be 22 a0 a5 bb ca 6b 0f 3d f8 f8 86 3d
       -0.1802684 -0.0050544897 0.035014905 0.06590456
0003a0 e6 b8 c7 bc 85 4c 79 3e fb fd d1 3c e9 29 ed bd
       -0.024380159 0.24345596 0.025633803 -0.11580259
0003b0 7a 60 57 bc 21 52 ee 3d 14 f0 c0 3d 2c 6e 19 be
       -0.01314556 0.116367586 0.09420791 -0.14983433
0003c0 ff 36 af 3d da cf 6c bd 33 3b 28 be 2f 4f 83 bd
       0.085554115 -0.05781541 -0.16428833 -0.064115874
0003d0 ee c2 81 3e 70 1f 6c 3e 1e 8e 2a 3e d1 d8 47 3e
       0.25344032 0.23058867 0.16655776 0.19516303
0003e0 02 02 5e 3e 41 fa 7c 3a e8 4f df bd 7a d0 fd 3d
       0.21680453 0.0009650328 -0.10903913 0.123932794
0003f0 b5 02 04 be e8 d3 8f bd 6b 3f 4e bd 73 72 8d 3d
       -0.12891658 -0.0702284 -0.05035345 0.06906595

net.4.bias f4 [32]
000000 6b ad 40 be 7c 74 25 be 6b 88 2f 3e ef 69 a1 3e
       -0.18816154 -0.16157717 0.17141883 0.31526133
000010 22 00 00 3e 20 27 a4 bc a4 91 30 3e 9e 35 b8 3e
       0.1250005 -0.020038188 0.17243057 0.35978407
000020 90 b3 b4 bd bd 75 df bd f3 63 38 3e b7 40 39 be
       -0.08823311 -0.10911129 0.18006878 -0.18091093
000030 f3 4a 13 bd e6 15 64 3e 71 3e 20 3e 57 4f 31 3e
       -0.03596015 0.22273979 0.1564882 0.17315422
000040 9f 26 f4 bd f4 17 88 bd 05 66 a2 3e 5d 54 b5 bd
       -0.11921429 -0.06645194 0.3171846 -0.08853982
000050 23 49 c5 bd 79 21 24 3e 8c 47 55 be e6 dd aa 3e
       -0.0963309 0.16028394 -0.20828074 0.3337242
000060 57 67 75 bd 5a 6e 9d bd 0a 47 3f 3c 8f be 52 be
       -0.059913006 -0.076870635 0.011674652 -0.20580505
000070 28 c4 a5 be 18 f1 b6 3d b0 a6 36 3e be 56 45 be
       -0.32376218 0.08932704 0.17837024 -0.19271371

net.6.weight f4 [4, 32]
000000 89 24 94 bd eb 9a 2c 3e fc 13 e4 3d 93 0e ee 3d
       -0.07233531 0.16855972 0.11136624 0.116238736
000010 a5 97 97 bd 49 86 13 bd 68 d3 2c 3d d4 d0 08 3d
       -0.07401971 -0.036016736 0.0421938 0.03340228
000020 5e f7 a8 bd 86 6b e8 bb 82 b4 7c 3d 51 bc 88 bd
       -0.082503065 -0.007092896 0.061695583 -0.066765435
000030 a5 a5 71 3d a7 41 8a bb b8 49 79 3d 55 7b d8 3d
       0.05899586 -0.004219252 0.06086132 0.10570399
000040 6e 85 e3 bd 14 58 23 be d4 a0 1e 3e 2d 7c c4 3b
       -0.11109434 -0.15951568 0.15491039 0.005996248
000050 ce 26 c2 bd 99 b2 08 3e 78 fa bb bd b9 4d 32 3e
       -0.09480058 0.1334938 -0.091786325 0.17412461
000060 cb 0a 4c 3d de 14 19 be 08 78 ab 3d 23 9d f5 bd
       0.04981498 -0.14949366 0.083725035 -0.11992862
000070 98 c6 15 be e7 e1 cc bb bd 9b a5 bd a8 d0 ed 3d
       -0.14626539 -0.0062525156 -0.08086345 0.11612064
000080 f9 16 c4 3b 05 2f 83 3d 0d 93 e9 bd 9a 9a 16 3e
       0.005984184 0.06405453 -0.11405001 0.14707413
000090 e6 ff bd bc c1 6f be bd 0a 00 c2 3d a5 01 1b 3e
       -0.023193311 -0.09298659 0.09472664 0.15137346
0000a0 2d 37 44 3e b3 bd 04 be a5 94 2f bd 27 4b 2a bc
       0.19161673 -0.1296299 -0.042866368 -0.010393894
0000b0 87 d7 a8 3d 36 05 09 3e 02 24 e5 3d db 8c 89 ba
       0.082442336 0.13380894 0.111885086 -0.0010494249
0000c0 fa 50 a4 3d 69 9d 15 3e 50 b4 84 3c e6 7e b7 3d
       0.080232576 0.14610828 0.016199261 0.08959751
0000d0 90 dc a6 3d af d5 f3 3d 5f fb e5 bd ce a2 05 bd
       0.08147538 0.11905991 -0.11229586 -0.032625966
0000e0 c1 54 ba bd 71 17 fc 3b 42 45 9b 3d 6d cf 6e bd
       -0.09098197 0.007693224 0.07581569 -0.058303285
0000f0 e7 8e 24 3d cd 63 24 bd 84 90 14 3e a1 0d 85 bd
       0.040175345 -0.04013424 0.14508253 -0.0649674
000100 4a 4e e8 bd 7c d2 d3 bd fa 54 ac bd 2b 2d 08 3e
       -0.113430575 -0.10342881 -0.084146455 0.1329848
000110 f2 bf b1 bd 69 29 db 3c 89 2c db 3d f8 b0 ff bc
       -0.08679189 0.026753144 0.10701854 -0.031212315
000120 a9 8e b7 3d 99 ed 46 be 5f ac a8 bd 03 79 51 be
       0.08962757 -0.19426574 -0.08236002 -0.20456319
000130 92 7e 9b bc f5 ae bd 3a 01 87 24 3d af f9 cf 3b
       -0.018981252 0.0014471697 0.040167812 0.0063469033
000140 ab 5d 85 3d be 1b 36 3e c3 d2 00 3e 0c b6 d8 bd
       0.06512006 0.1778402 0.12580399 -0.10581598
000150 d7 84 2e be 1a 85 de 3c c2 9e cb bd d2 18 14 3e
       -0.17042862 0.027163077 -0.0994239 0.14462593
000160 b4 5d a0 3d f1 0f 89 3d 4b d7 0a 3e d2 90 57 3e
       0.078303725 0.06692494 0.1355869 0.21051338
000170 35 90 32 bc 2e 3e d8 bd 72 f0 48 3e 66 d3 0f be
       -0.010898639 -0.10558735 0.19622973 -0.14045486
000180 fb 45 2c bd 71 2b 11 3e 5f 1a 39 3e 80 2e ca 3d
       -0.042058926 0.14176728 0.18076466 0.098721504
000190 c8 6a 2f 3d 2c 94 db bd 22 f7 4e 3d 0b ee 70 3e
       0.042826444 -0.10721621 0.050528653 0.23528306
0001a0 f9 50 ab 3d 3f b1 d5 bb f2 13 f3 3b 11 2a d9 bd
       0.08365054 -0.0065213735 0.007418149 -0.10603727
0001b0 6b 35 0f 3e 51 2e 9d 3d d8 fa 04 3e a5 d3 fd 3b
       0.13985221 0.0767485 0.12986314 0.0077461773
0001c0 18 b6 72 3d b3 bd b5 3d 1c 7b b9 3d 9b 6a 99 3d
       0.05925569 0.08874073 0.090566844 0.074910365
0001d0 d4 d8 d8 3d 52 0a 02 3e 9f 14 fe 3d 34 1a 1b 3c
       0.10588232 0.1269925 0.12406277 0.0094666965
0001e0 3d 14 42 be ac eb fe 3c da 5e 02 bd 0b 2e 65 bb
       -0.18953033 0.031118236 -0.03182874 -0.003497007
0001f0 a5 9a 9f bd cd 28 01 3d 4c 49 2b 3e 9c 2f c0 ba
       -0.07793168 0.03153305 0.1672718 -0.0014662626

net.6.bias f4 [4]
000000 95 29 93 3c 7c c1 03 3c c4 64 17 3d a3 5b 4b 3c
       0.017964164 0.008041736 0.036961332 0.012411985
