Accident/torch_template/model_weights_1.pth (torch, 6994 bytes, 9 tensors)

net.0.weight f4 [13]
0.48217863 0.39104518 0.93107736 0.35055414 0.5698163 0.33307487 0.45147756 0.6283285
0.3075895 0.36025497 0.6022601 0.8725106 0.67345524
00000000: 1ee0 f63e 1337 c83e 165b 6e3f d57b b33e
00000010: 7bdf 113f ca88 aa3e 1128 e73e 23da 203f
00000020: 5f7c 9d3e 5773 b83e b82d 1a3f db5c 5f3f
00000030: 9067 2c3f

net.0.bias f4 [13]
0.0105143115 0.078872465 -0.05553849 -0.35633796 0.2818556 0.35845447 -0.5970827 0.3845431
-0.24534443 -0.012234181 -0.43382 0.52798426 0.13891698
00000000: 3844 2c3c e387 a13d 547c 63bd ee71 b6be
00000010: 614f 903e 5887 b73e 69da 18bf d5e2 c43e
00000020: 923b 7bbe e071 48bc a81d debe fa29 073f
00000030: 4140 0e3e

net.0.running_mean f4 [13]
2.925298 2.154392 0.38724923 0.85717773 2019.9656 6.7086415 15.747065 13.762117
6.1662707 99.723724 1654.6312 0.9705237 3.9093006
00000000: 1538 3b40 8fe1 0940 8845 c63e 0070 5b3f
00000010: e67e fc44 31ad d640 faf3 7b41 a231 5c41
00000020: 1752 c540 8c72 c742 33d4 ce44 3e74 783f
00000030: fb31 7a40

net.0.running_var f4 [13]
4.1759315 0.385009 1.3541086 0.20570356 0.66994494 11.629508 77.24582 32.117676
24.525703 3407.4739 895905.0 1.0033553 1.8412342
00000000: 3ba1 8540 e61f c53e 6e53 ad3f f4a3 523e
00000010: 8381 2b3f 7712 3a41 dc7d 9a42 8078 0042
00000020: a434 c441 95f7 5445 10ba 5a49 f26d 803f
00000030: 90ad eb3f

net.2.weight f4 [16, 13]
0.035836633 0.12273787 -0.047452237 0.2501987 -0.017855627 0.07055019 -0.075435236 0.25852898
0.06164809 -0.16234371 0.22910309 0.15162197 0.17055319 -0.03314138 0.022319732 0.001179357
0.08984691 -0.05156432 -0.020432446 0.030908693 0.007404267 -0.008427192 -0.036249097 0.06645454
-0.17431097 -0.040445987 0.00989184 -0.022955272 -0.02587069 -0.095125906 0.091437876 -0.04453386
0.044013534 -0.011364003 0.010495589 0.03133843 0.028226364 0.2121734 -0.038594477 -0.07395524
-0.008671421 -0.0032519652 0.008183733 0.10595261 0.23832126 -0.07643676 0.06903741 -0.060298316
0.026367782 -0.14264534 -0.09941823 0.001087004 -0.043403342 0.24609864 0.17555349 0.16264012
0.12443409 0.03791243 0.26969624 -0.22716586 -0.08765342 -0.22270249 0.06459611 -0.2611239
-0.15858094 0.007539642 0.12278741 -0.3301608 -0.22730543 -0.19159958 0.3507076 0.18276636
0.32202327 -0.14397039 -0.28512496 -0.21639377 -0.2087707 0.093234375 0.08138124 0.09841957
-0.010910682 -0.1035795 0.12768237 -0.025802493 0.11598516 -0.11353495 0.066397995 -0.05812367
-0.083870396 0.10439511 0.06688758 -0.0001365878 0.014196431 0.2135467 -0.024632938 -0.023000015
0.08336559 -0.020164376 -0.006231576 -0.069481075 -0.042304162 0.023123914 0.042340107 -0.041921895
0.0044202968 0.027341576 -0.1647569 -0.05807003 -0.106200375 0.055779647 0.0997651 0.081325606
-0.013189006 -0.0685315 -0.044345208 -0.072820365 0.029991254 -0.16169487 -0.054132577 -0.15403305
0.18396223 0.029007468 0.083448365 -0.04240702 -0.019293338 -0.11290768 -0.026432334 0.0007565969
0.26055482 -0.1142967 0.056610566 0.008695291 -0.25862905 0.0023466172 0.0040933257 -0.077073485
-0.07586075 -0.060215373 0.056682292 0.05171653 0.043640606 -0.13389115 0.13079508 -0.1540568
-0.032837443 0.11693213 0.059838563 0.23608254 0.41264537 -0.26035193 0.14856333 -0.16214013
0.089334436 -0.26289782 0.12671684 -0.2835506 0.15442158 0.05438801 0.023067782 -0.28432313
0.23327291 0.02076658 0.09820624 -0.15225506 0.11325082 -0.013744957 -0.22166179 0.33229175
0.15270276 0.024968058 -0.03258901 -0.0122672925 0.0136592 -0.010190897 -0.046802845 -0.039776914
-0.022848073 0.048561174 0.06066294 -0.06741277 0.0426408 0.010273557 -0.0037152322 -0.027632006
0.20352812 0.021211958 0.019263595 0.07016615 -0.099375404 0.0689424 -0.065575555 0.061973613
0.08046816 0.26779002 -0.013024431 0.027826661 -0.074304305 -0.1617952 -0.026414536 0.084459476
-0.138878 -0.27042627 0.26384774 -0.013264845 0.037824605 -0.17362294 -0.13772918 -0.14093833
00000000: 6fc9 123d fe5d fb3d 475d 42bd 0b1a 803e
00000010: f745 92bc 9e7c 903d ca7d 9abd e95d 843e
00000020: b582 7c3d 6e3d 26be 009a 6a3e ca42 1b3e
00000030: 7fa5 2e3e 41bf 07bd dfd7 b63c a794 9a3a
00000040: a801 b83d 1c35 53bd f261 a7bc 3a34 fd3c
00000050: 7e9f f23b 3512 0abc ef79 14bd 5119 883d
00000060: 937e 32be b1aa 25bd 6211 223c b20c bcbc
00000070: c5ee d3bc 5fd1 c2bd c843 bb3d 2369 36bd
00000080: 8947 343d 1530 3abc b1f5 2b3c ba5c 003d
00000090: fa3a e73c fc43 593e 3e15 1ebd d875 97bd
000000a0: 9312 0ebc ec1e 55bb 1015 063c affd d83d
000000b0: 7d0a 743e e08a 9cbd 7c63 8d3d 5efb 76bd
000000c0: 3f01 d83c 9f11 12be c99b cbbd cd79 8e3a
000000d0: b4c7 31bd 4801 7c3e 4bc4 333e 228b 263e
000000e0: 4dd7 fe3d 104a 1b3d a015 8a3e 2b9e 68be
000000f0: a383 b3bd 1f0c 64be f74a 843d 08b2 85be
00000100: 0b63 22be 1a0f f73b f777 fb3d d60a a9be
00000110: c1c2 68be ae32 44be f28f b33e 1b27 3b3e
00000120: 3ce0 a43e f96c 13be e6fb 91be 5496 5dbe
00000130: fdc7 55be aaf1 be3d 35ab a63d 3390 c93d
00000140: b8c2 32bc 7d21 d4bd 2bbf 023e c05f d3bc
00000150: a189 ed3d 0385 e8bd acfb 873d 1613 6ebd
00000160: 3ec4 abbd 1acd d53d 5bfc 883d 0239 0fb9
00000170: 2698 683c fcab 5a3e 04cb c9bc 876a bcbc
00000180: 94bb aa3d c32f a5bc 4032 ccbb 184c 8ebd
00000190: 2147 2dbd 5d6e bd3c d26c 2d3d 4bb6 2bbd
000001a0: 23d8 903b 71fb df3c 08b6 28be d7da 6dbd
000001b0: 957f d9bd 3379 643d a551 cc3d 0a8e a63d
000001c0: b316 58bc 3e5a 8cbd 52a3 35bd d822 95bd
000001d0: 38b0 f53c 5793 25be 1fba 5dbd d7ba 1dbe
000001e0: 9860 3c3e 12a1 ed3c fae6 aa3d fcb2 2dbd
000001f0: 100d 9ebc 243c e7bd 9f88 d8bc 5c56 463a
00000200: 7167 853e 6314 eabd 7be0 673d b276 0e3c
00000210: 076b 84be b4c9 193b 4e21 863b b4d8 9dbd
00000220: e25c 9bbd 65a4 76bd b12b 683d b6d4 533d
00000230: 7ec0 323d c31a 09be 25ef 053e 11c1 1dbe
00000240: 8e80 06bd 1d7a ef3d 4819 753d 9fbf 713e
00000250: 4146 d33e d94c 85be fc20 183e 1008 26be
00000260: f9f4 b63d 8b9a 86be 0fc2 013e 8b2d 91be
00000270: b120 1e3e f6c5 5e3d a5f8 bc3c cd92 91be
00000280: 18df 6e3e ad1e aa3c 5a20 c93d c0e8 1bbe
00000290: 0cf0 e73d 8732 61bc 4ffb 62be 2522 aa3e
000002a0: 1d5e 1c3e d089 cc3c 0e7c 05bd c1fc 48bc
000002b0: d6ca 5f3c b8f7 26bc 57b4 3fbd 1eed 22bd
000002c0: e22b bbbc 15e8 463d b479 783d b50f 8abd
000002d0: 1fa8 2e3d 6c52 283c 417b 73bb 845c e2bc
000002e0: ad69 503e b3c4 ad3c b0ce 9d3c 45b3 8f3d
000002f0: 5585 cbbd ac31 8d3d 7a4c 86bd 0bd8 7d3d
00000300: 7ecc a43d c61b 893e 6c64 55bc bdf4 e33c
00000310: db2c 98bd a4ad 25be 4c63 d8bc 17f9 ac3d
00000320: 0936 0ebe 5075 8abe 0d17 873e cb54 59bc
00000330: f9ed 1a3d 36ca 31be e108 0dbe 2352 10be

net.2.bias f4 [16]
0.20204087 0.3452367 0.4945093 0.28340015 -0.077039585 -0.04743461 0.24454978 0.49430376
0.29634774 0.17735255 0.370308 0.020439565 -0.14352535 0.4305218 -0.17033868 0.2309461
00000000: cde3 4e3e ddc2 b03e 5330 fd3e d319 913e
00000010: eec6 9dbd cb4a 42bd 426b 7a3e 6215 fd3e
00000020: e4ba 973e e89b 353e 0399 bd3e e070 a73c
00000030: 4ff8 12be 5a6d dc3e 436d 2ebe 227d 6c3e

net.4.weight f4 [32, 16]
-0.18030512 0.19634141 0.2476948 0.09274141 -0.13406768 -0.16529083 -0.15132987 0.1888332
0.18176074 0.2861113 0.17798305 0.12550944 0.12535658 -0.16915205 -0.026030345 -0.18464911
0.1387481 0.087895006 0.1556762 0.062623404 -0.008292183 -0.14138024 -0.06298597 0.3468184
0.14118749 0.21128078 0.062447 -0.16716005 -0.049640186 0.13596958 -0.09798674 -0.20500602
0.16249245 0.019289674 0.3016 0.32099566 0.19601017 -0.17913884 0.24672692 0.1318649
0.28065056 0.26954025 0.097968206 0.024468342 -0.0789843 0.032372832 0.07923736 -0.19387235
0.17548497 0.3770258 0.4116238 0.14668351 -0.17662746 0.06741179 0.20422654 -0.0025942253
0.12969498 -0.108697034 0.10928568 -0.09563048 -0.13369788 0.15904155 -0.28420472 0.2515942
0.2369578 0.06461515 0.01881221 -0.057646748 -0.291577 -0.1874505 0.12758218 -0.15245429
-0.15103851 -0.054729693 -0.0052754483 -0.13735758 0.055719733 -0.018891942 -0.045607843 -0.03984156
-0.24788748 0.23517661 -0.032499537 0.12493197 -0.22396018 -0.11097473 0.27904138 0.20846948
-0.15403782 0.04139776 0.21020934 -0.084635906 0.009624041 0.3206461 -0.2440271 -0.047668267
-0.10971624 0.104045175 0.34664485 0.3185856 -0.19128717 -0.17949238 -0.0021441479 -0.030947978
-0.0074323867 0.021606172 0.27619734 0.040743668 -0.23041774 0.0006988599 0.018955138 -0.15687774
-0.02527958 0.2683802 0.061620593 0.14673716 -0.04377707 -0.061424214 0.035330437 0.0032307736
-0.019240644 -0.04810259 0.3273575 -0.12138353 -0.16363014 0.26436326 -0.008452592 0.13591859
0.28643006 0.18695062 -0.14149988 0.095378496 0.12062802 0.022541722 -0.014751211 0.26104778
-0.038298618 -0.06640364 -0.052023288 -0.0117474925 0.1279961 0.040616207 0.0951715 -0.15583782
-0.17830807 0.21246718 0.41572383 0.36395335 -0.08532366 -0.0037499242 -0.09045562 0.15575525
0.2438313 0.18193674 0.351153 -0.18055455 0.15647557 0.07832617 0.06531581 0.26804295
0.033438668 0.4251147 -0.021184597 0.12156845 0.16854054 -0.03673951 0.028412357 0.15515824
0.3680961 0.16532584 0.21863699 -0.102468856 -0.20735063 0.27798605 0.042530954 -0.059262857
-0.036902484 0.35504267 0.17969216 0.22188295 -0.032921437 -0.1749082 -0.11137521 0.13033478
0.08778808 0.106969714 0.04458778 -0.07921427 0.1842149 0.30487445 0.098187216 -0.076614395
-0.07397565 0.2951101 0.03153065 0.068410404 0.009752511 -0.067254245 -0.119242765 0.41275814
0.3999613 0.08425099 0.09916863 -0.18135244 -0.09974742 0.3240616 0.09000134 0.029564383
-0.05021957 0.09984606 -0.21237081 0.119087115 -0.18521851 -0.029531255 -0.08404056 -0.03559058
-0.118853346 0.16070408 -0.025117066 0.1657488 0.2755773 -0.18559362 -0.15788744 0.16250855
0.22022766 0.00802514 0.16101618 -0.030095598 -0.18474928 0.06140327 0.13615097 0.30590433
0.124356546 0.26681393 0.17109782 -0.11991724 -0.03371695 0.30398342 0.04831461 -0.1166713
0.11792949 0.063696064 -0.027074039 0.06985839 0.25777242 0.2221566 0.29184192 0.39356536
0.37497008 0.0036928123 -0.002383871 0.15209113 -0.14729464 0.07610366 -0.117455065 0.10283014
00000000: e8a1 38be b90d 493e b5a3 7d3e 35ef bd3d
00000010: 0a49 09be 0042 29be 38f6 1abe 7e5d 413e
00000020: 7d1f 3a3e 2e7d 923e 3041 363e 8c85 003e
00000030: 7a5d 003e 3236 2dbe 973d d5bc a814 3dbe
00000040: fb13 0e3e 4c02 b43d 9569 1f3e b340 803d
00000050: f0db 07bc fbc5 10be cafe 80bd 2e92 b13e
00000060: 7493 103e fd59 583e 6dc8 7f3d 012c 2bbe
00000070: 8253 4bbd 9c3b 0b3e 46ad c8bd 19ed 51be
00000080: 6c64 263e 6105 9e3c 516b 9a3e 8b59 a43e
00000090: e4b6 483e 2c70 37be fba5 7c3e 9807 073e
000000a0: 6eb1 8f3e 2e01 8a3e 8ea3 c83d d571 c83c
000000b0: 85c2 a1bd 6099 043d 3247 a23d 7986 46be
000000c0: 55b2 333e 8709 c13e 5bc0 d23e 3434 163e
000000d0: d4dd 34be 310f 8a3d c320 513e e103 2abb
000000e0: c3ce 043e 8d9c debd 2cd1 df3d ead9 c3bd
000000f0: 19e8 08be cadb 223e 4883 91be f4d0 803e
00000100: 11a5 723e f354 843d 101c 9a3c ff1e 6cbd
00000110: 9549 95be 06f3 3fbe e7a4 023e fa1c 1cbe
00000120: d7a9 1abe 3e2c 60bd abdd acbb 77a7 0cbe
00000130: 603a 643d 46c3 9abc 4acf 3abd e730 23bd
00000140: 37d6 7dbe 23d2 703e 3c1e 05bd 55dc ff3d
00000150: d155 65be b846 e3bd 83de 8e3e 0679 553e
00000160: 17bc 1dbe b390 293d 1e41 573e 9755 adbd
00000170: 27ae 1d3c ba2b a43e 3de2 79be cd3f 43bd
00000180: e8b2 e0bd a315 d53d 6f7b b13e a71d a33e
00000190: c9e0 43be dacc 37be d584 0cbb 9d86 fdbc
000001a0: 618b f3bb 6dff b03c bd69 8d3e d5e2 263d
000001b0: a1f2 6bbe b233 373a ce47 9b3c 8fa4 20be
000001c0: 1f17 cfbc 2169 893e e065 7c3d 4442 163e
000001d0: 964f 33bd f597 7bbd a6b6 103d 63bb 533b
000001e0: 8e9e 9dbc 3907 45bd 679b a73e ee97 f8bd
000001f0: a98e 27be 9f5a 873e be7c 0abc 3e2e 0b3e
00000200: f6a6 923e fc6f 3f3e 58e5 10be cd55 c33d
00000210: d30b f73d 6ba9 b83c 10af 71bc 0ea8 853e
00000220: 03df 1cbd a2fe 87bd 5f16 55bd 8e78 40bc
00000230: 6911 033e 2e5d 263d 47e9 c23d f393 1fbe
00000240: 6496 36be ff90 593e c1d9 d43e 1858 ba3e
00000250: 2cbe aebd 4ac1 75bb cc40 b9bd 4e7e 1f3e
00000260: eaae 793e a04d 3a3e 53ca b33e 4be3 38be
00000270: 223b 203e 7969 a03d 4cc4 853d ed3c 893e
00000280: fcf6 083d a2a8 d93e 528b adbc e1f8 f83d
00000290: e495 2c3e 2b7c 16bd 08c1 e83c cde1 1e3e
000002a0: 1877 bc3e 2d4b 293e 60e2 5f3e 31db d1bd
000002b0: b953 54be 3054 8e3e f034 2e3d 9cbd 72bd
000002c0: 0f27 17bd 27c8 b53e 3901 383e 4935 633e
000002d0: a1d8 06bd 231b 33be b018 e4bd 7b76 053e
000002e0: 3dca b33d f012 db3d ada1 363d 173b a2bd
000002f0: d5a2 3c3e 8118 9c3e 6116 c93d 02e8 9cbd
00000300: 8c80 97bd ac18 973e 4826 013d c11a 8c3d
00000310: ffc8 1f3c 98bc 89bd 8d35 f4bd 0955 d33e
00000320: bac7 cc3e c88b ac3d ec18 cb3d 74b4 39be
00000330: 6048 ccbd 67eb a53e 9f52 b83d 0131 f23c
00000340: 09b3 4dbd 177c cc3d bc77 59be f2e3 f33d
00000350: eca9 3dbe 88eb f1bc 751d acbd 6ec7 11bd
00000360: 6269 f3bd 9c8f 243e 4ec2 cdbc 0eba 293e
00000370: 7818 8d3e 410c 3ebe 3fad 21be a468 263e
00000380: 5c83 613e e07b 033c 6de1 243e 0b8b f6bc
00000390: ea2e 3dbe ff81 7b3d 296b 0b3e 7e9f 9c3e
000003a0: a5ae fe3d d69b 883e 4434 2f3e 2c97 f5bd
000003b0: c91a 0abd b7a3 9b3e 8ae5 453d 5df1 eebd
000003c0: 0485 f13d 1573 823d 60ca ddbc ea11 8f3d
000003d0: bffa 833e 057d 633e 4e6c 953e 6681 c93e
000003e0: 14fc bf3e 1c03 723b b83a 1cbb c7bd 1b3e
000003f0: 68d4 16be 3cdc 9b3d 488c f0bd 9c98 d23d

net.4.bias f4 [32]
-0.20944072 0.1161883 0.40463367 0.49232608 0.1296038 0.13968576 0.31433517 0.47642827
-0.18895422 0.1804421 0.46083796 0.091086164 0.15774192 0.069626406 0.3587154 0.35734802
-0.17165586 -0.16963522 0.50366884 0.14048092 -0.15763 0.3936488 -0.06736472 0.52070194
0.15693595 -0.06614576 0.20958228 -0.23409174 -0.22103195 0.37590626 2.0015173e-06 0.044694472
00000000: a177 56be 22f4 ed3d 252c cf3e 2a12 fc3e
00000010: dcb6 043e c909 0f3e 8af0 a03e 68ee f33e
00000020: 377d 41be d0c5 383e f4f2 eb3e 628b ba3d
00000030: 1987 213e 4a98 8e3d 8ba9 b73e 52f6 b63e
00000040: 8ec6 2fbe dbb4 2dbe 71f0 003f 3bda 0f3e
00000050: c269 21be 568c c93e 84f6 89bd b94c 053f
00000060: d1b3 203e 6e77 87bd bd9c 563e bfb5 6fbe
00000070: 3356 62be c976 c03e ce51 0636 8d11 373d

net.6.weight f4 [1, 32]
-0.22365156 0.44484758 0.29986313 0.30524206 -0.06301291 0.13901147 0.225583 0.21644656
-0.16377509 0.22641636 0.2604945 0.20946372 0.2767795 -0.013167547 0.2853075 0.30007342
-0.2129428 -0.41479793 0.335346 0.24578854 -0.1805634 0.42036778 0.13782999 0.38638484
0.30787203 -0.17204015 0.33229244 -0.105276026 -0.15007226 0.20919523 -0.15536734 0.35517386
00000000: ea04 65be 10c3 e33e a987 993e b048 9c3e
00000010: ea0c 81bd 0659 0e3e 3bff 663e 2ba4 5d3e
00000020: a8b4 27be b1d9 673e 895f 853e a87d 563e
00000030: 0bb6 8d3e b2bc 57bc d313 923e 39a3 993e
00000040: ad0d 5abe 6560 d4be 79b2 ab3e feaf 7b3e
00000050: 9de5 38be 723a d73e 4e23 0d3e 3cd4 c53e
00000060: 67a1 9d3e 4b2b 30be 3c22 aa3e f59a d7bd
00000070: 8bac 19be 4637 563e 9e18 1fbe 59d9 b53e
